{"format": "graph-model", "generatedBy": "2.8.0", "convertedBy": "TensorFlow.js Converter v3.11.0", "signature": {"inputs": {"lstm_2_input": {"name": "lstm_2_input:0", "dtype": "DT_FLOAT", "tensorShape": {"dim": [{"size": "-1"}, {"size": "11"}, {"size": "1"}]}}}, "outputs": {"dense_3": {"name": "Identity:0", "dtype": "DT_FLOAT", "tensorShape": {"dim": [{"size": "-1"}, {"size": "2"}]}}}}, "modelTopology": {"node": [{"name": "StatefulPartitionedCall/sequential_1/lstm_3/while/loop_counter", "op": "Const", "attr": {"dtype": {"type": "DT_INT32"}, "value": {"tensor": {"dtype": "DT_INT32", "tensorShape": {}}}}}, {"name": "StatefulPartitionedCall/sequential_1/lstm_3/while/maximum_iterations", "op": "Const", "attr": {"value": {"tensor": {"dtype": "DT_INT32", "tensorShape": {}}}, "dtype": {"type": "DT_INT32"}}}, {"name": "StatefulPartitionedCall/sequential_1/lstm_3/time", "op": "Const", "attr": {"value": {"tensor": {"dtype": "DT_INT32", "tensorShape": {}}}, "dtype": {"type": "DT_INT32"}}}, {"name": "StatefulPartitionedCall/sequential_1/lstm_3/TensorArrayV2_1/element_shape", "op": "Const", "attr": {"dtype": {"type": "DT_INT32"}, "value": {"tensor": {"dtype": "DT_INT32", "tensorShape": {"dim": [{"size": "2"}]}}}}}, {"name": "StatefulPartitionedCall/sequential_1/lstm_3/zeros/packed/1", "op": "Const", "attr": {"value": {"tensor": {"dtype": "DT_INT32", "tensorShape": {}}}, "dtype": {"type": "DT_INT32"}}}, {"name": "StatefulPartitionedCall/sequential_1/lstm_3/zeros/Const", "op": "Const", "attr": {"value": {"tensor": {"dtype": "DT_FLOAT", "tensorShape": {}}}, "dtype": {"type": "DT_FLOAT"}}}, {"name": "StatefulPartitionedCall/sequential_1/lstm_2/transpose_1/perm", "op": "Const", "attr": {"dtype": {"type": "DT_INT32"}, "value": {"tensor": {"dtype": "DT_INT32", "tensorShape": {"dim": [{"size": "3"}]}}}}}, {"name": "StatefulPartitionedCall/sequential_1/lstm_3/strided_slice/stack", "op": "Const", "attr": {"dtype": {"type": "DT_INT32"}, "value": {"tensor": {"dtype": "DT_INT32", "tensorShape": {"dim": [{"size": "1"}]}}}}}, {"name": "StatefulPartitionedCall/sequential_1/lstm_3/strided_slice/stack_1", "op": "Const", "attr": {"value": {"tensor": {"dtype": "DT_INT32", "tensorShape": {"dim": [{"size": "1"}]}}}, "dtype": {"type": "DT_INT32"}}}, {"name": "StatefulPartitionedCall/sequential_1/lstm_3/strided_slice/stack_2", "op": "Const", "attr": {"value": {"tensor": {"dtype": "DT_INT32", "tensorShape": {"dim": [{"size": "1"}]}}}, "dtype": {"type": "DT_INT32"}}}, {"name": "StatefulPartitionedCall/sequential_1/lstm_3/zeros_1/packed/1", "op": "Const", "attr": {"value": {"tensor": {"dtype": "DT_INT32", "tensorShape": {}}}, "dtype": {"type": "DT_INT32"}}}, {"name": "StatefulPartitionedCall/sequential_1/lstm_3/zeros_1/Const", "op": "Const", "attr": {"value": {"tensor": {"dtype": "DT_FLOAT", "tensorShape": {}}}, "dtype": {"type": "DT_FLOAT"}}}, {"name": "StatefulPartitionedCall/sequential_1/lstm_3/strided_slice_1/stack", "op": "Const", "attr": {"value": {"tensor": {"dtype": "DT_INT32", "tensorShape": {"dim": [{"size": "1"}]}}}, "dtype": {"type": "DT_INT32"}}}, {"name": "StatefulPartitionedCall/sequential_1/lstm_3/strided_slice_1/stack_1", "op": "Const", "attr": {"value": {"tensor": {"dtype": "DT_INT32", "tensorShape": {"dim": [{"size": "1"}]}}}, "dtype": {"type": "DT_INT32"}}}, {"name": "StatefulPartitionedCall/sequential_1/lstm_3/strided_slice_1/stack_2", "op": "Const", "attr": {"dtype": {"type": "DT_INT32"}, "value": {"tensor": {"dtype": "DT_INT32", "tensorShape": {"dim": [{"size": "1"}]}}}}}, {"name": "StatefulPartitionedCall/sequential_1/lstm_2/while/loop_counter", "op": "Const", "attr": {"dtype": {"type": "DT_INT32"}, "value": {"tensor": {"dtype": "DT_INT32", "tensorShape": {}}}}}, {"name": "StatefulPartitionedCall/sequential_1/lstm_2/while/maximum_iterations", "op": "Const", "attr": {"dtype": {"type": "DT_INT32"}, "value": {"tensor": {"dtype": "DT_INT32", "tensorShape": {}}}}}, {"name": "StatefulPartitionedCall/sequential_1/lstm_2/time", "op": "Const", "attr": {"value": {"tensor": {"dtype": "DT_INT32", "tensorShape": {}}}, "dtype": {"type": "DT_INT32"}}}, {"name": "StatefulPartitionedCall/sequential_1/lstm_2/TensorArrayV2_1/element_shape", "op": "Const", "attr": {"dtype": {"type": "DT_INT32"}, "value": {"tensor": {"dtype": "DT_INT32", "tensorShape": {"dim": [{"size": "2"}]}}}}}, {"name": "StatefulPartitionedCall/sequential_1/lstm_2/zeros/packed/1", "op": "Const", "attr": {"value": {"tensor": {"dtype": "DT_INT32", "tensorShape": {}}}, "dtype": {"type": "DT_INT32"}}}, {"name": "StatefulPartitionedCall/sequential_1/lstm_2/zeros/Const", "op": "Const", "attr": {"value": {"tensor": {"dtype": "DT_FLOAT", "tensorShape": {}}}, "dtype": {"type": "DT_FLOAT"}}}, {"name": "StatefulPartitionedCall/sequential_1/lstm_2/strided_slice/stack", "op": "Const", "attr": {"value": {"tensor": {"dtype": "DT_INT32", "tensorShape": {"dim": [{"size": "1"}]}}}, "dtype": {"type": "DT_INT32"}}}, {"name": "StatefulPartitionedCall/sequential_1/lstm_2/strided_slice/stack_1", "op": "Const", "attr": {"dtype": {"type": "DT_INT32"}, "value": {"tensor": {"dtype": "DT_INT32", "tensorShape": {"dim": [{"size": "1"}]}}}}}, {"name": "StatefulPartitionedCall/sequential_1/lstm_2/strided_slice/stack_2", "op": "Const", "attr": {"value": {"tensor": {"dtype": "DT_INT32", "tensorShape": {"dim": [{"size": "1"}]}}}, "dtype": {"type": "DT_INT32"}}}, {"name": "StatefulPartitionedCall/sequential_1/lstm_2/zeros_1/packed/1", "op": "Const", "attr": {"value": {"tensor": {"dtype": "DT_INT32", "tensorShape": {}}}, "dtype": {"type": "DT_INT32"}}}, {"name": "StatefulPartitionedCall/sequential_1/lstm_2/zeros_1/Const", "op": "Const", "attr": {"value": {"tensor": {"dtype": "DT_FLOAT", "tensorShape": {}}}, "dtype": {"type": "DT_FLOAT"}}}, {"name": "StatefulPartitionedCall/sequential_1/lstm_2/strided_slice_1/stack", "op": "Const", "attr": {"value": {"tensor": {"dtype": "DT_INT32", "tensorShape": {"dim": [{"size": "1"}]}}}, "dtype": {"type": "DT_INT32"}}}, {"name": "StatefulPartitionedCall/sequential_1/lstm_2/strided_slice_1/stack_1", "op": "Const", "attr": {"value": {"tensor": {"dtype": "DT_INT32", "tensorShape": {"dim": [{"size": "1"}]}}}, "dtype": {"type": "DT_INT32"}}}, {"name": "StatefulPartitionedCall/sequential_1/lstm_2/strided_slice_1/stack_2", "op": "Const", "attr": {"dtype": {"type": "DT_INT32"}, "value": {"tensor": {"dtype": "DT_INT32", "tensorShape": {"dim": [{"size": "1"}]}}}}}, {"name": "StatefulPartitionedCall/sequential_1/lstm_2/transpose/perm", "op": "Const", "attr": {"value": {"tensor": {"dtype": "DT_INT32", "tensorShape": {"dim": [{"size": "3"}]}}}, "dtype": {"type": "DT_INT32"}}}, {"name": "StatefulPartitionedCall/sequential_1/lstm_2/TensorArrayUnstack/TensorListFromTensor/element_shape", "op": "Const", "attr": {"value": {"tensor": {"dtype": "DT_INT32", "tensorShape": {"dim": [{"size": "2"}]}}}, "dtype": {"type": "DT_INT32"}}}, {"name": "unknown", "op": "Const", "attr": {"value": {"tensor": {"dtype": "DT_FLOAT", "tensorShape": {"dim": [{"size": "1"}, {"size": "512"}]}}}, "dtype": {"type": "DT_FLOAT"}}}, {"name": "unknown_0", "op": "Const", "attr": {"value": {"tensor": {"dtype": "DT_FLOAT", "tensorShape": {"dim": [{"size": "128"}, {"size": "512"}]}}}, "dtype": {"type": "DT_FLOAT"}}}, {"name": "unknown_1", "op": "Const", "attr": {"value": {"tensor": {"dtype": "DT_FLOAT", "tensorShape": {"dim": [{"size": "512"}]}}}, "dtype": {"type": "DT_FLOAT"}}}, {"name": "StatefulPartitionedCall/sequential_1/lstm_2/TensorArrayV2Stack/TensorListStack/element_shape", "op": "Const", "attr": {"dtype": {"type": "DT_INT32"}, "value": {"tensor": {"dtype": "DT_INT32", "tensorShape": {"dim": [{"size": "2"}]}}}}}, {"name": "StatefulPartitionedCall/sequential_1/lstm_3/TensorArrayUnstack/TensorListFromTensor/element_shape", "op": "Const", "attr": {"dtype": {"type": "DT_INT32"}, "value": {"tensor": {"dtype": "DT_INT32", "tensorShape": {"dim": [{"size": "2"}]}}}}}, {"name": "unknown_2", "op": "Const", "attr": {"value": {"tensor": {"dtype": "DT_FLOAT", "tensorShape": {"dim": [{"size": "128"}, {"size": "512"}]}}}, "dtype": {"type": "DT_FLOAT"}}}, {"name": "unknown_3", "op": "Const", "attr": {"dtype": {"type": "DT_FLOAT"}, "value": {"tensor": {"dtype": "DT_FLOAT", "tensorShape": {"dim": [{"size": "128"}, {"size": "512"}]}}}}}, {"name": "unknown_4", "op": "Const", "attr": {"value": {"tensor": {"dtype": "DT_FLOAT", "tensorShape": {"dim": [{"size": "512"}]}}}, "dtype": {"type": "DT_FLOAT"}}}, {"name": "StatefulPartitionedCall/sequential_1/lstm_3/TensorArrayV2Stack/TensorListStack/element_shape", "op": "Const", "attr": {"value": {"tensor": {"dtype": "DT_INT32", "tensorShape": {"dim": [{"size": "2"}]}}}, "dtype": {"type": "DT_INT32"}}}, {"name": "StatefulPartitionedCall/sequential_1/lstm_3/strided_slice_3/stack", "op": "Const", "attr": {"value": {"tensor": {"dtype": "DT_INT32", "tensorShape": {"dim": [{"size": "1"}]}}}, "dtype": {"type": "DT_INT32"}}}, {"name": "StatefulPartitionedCall/sequential_1/lstm_3/strided_slice_3/stack_1", "op": "Const", "attr": {"value": {"tensor": {"dtype": "DT_INT32", "tensorShape": {"dim": [{"size": "1"}]}}}, "dtype": {"type": "DT_INT32"}}}, {"name": "StatefulPartitionedCall/sequential_1/lstm_3/strided_slice_3/stack_2", "op": "Const", "attr": {"value": {"tensor": {"dtype": "DT_INT32", "tensorShape": {"dim": [{"size": "1"}]}}}, "dtype": {"type": "DT_INT32"}}}, {"name": "StatefulPartitionedCall/sequential_1/dense_2/MatMul/ReadVariableOp", "op": "Const", "attr": {"dtype": {"type": "DT_FLOAT"}, "value": {"tensor": {"dtype": "DT_FLOAT", "tensorShape": {"dim": [{"size": "128"}, {"size": "32"}]}}}}}, {"name": "StatefulPartitionedCall/sequential_1/dense_2/BiasAdd/ReadVariableOp", "op": "Const", "attr": {"dtype": {"type": "DT_FLOAT"}, "value": {"tensor": {"dtype": "DT_FLOAT", "tensorShape": {"dim": [{"size": "32"}]}}}}}, {"name": "StatefulPartitionedCall/sequential_1/dense_3/MatMul/ReadVariableOp", "op": "Const", "attr": {"value": {"tensor": {"dtype": "DT_FLOAT", "tensorShape": {"dim": [{"size": "32"}, {"size": "2"}]}}}, "dtype": {"type": "DT_FLOAT"}}}, {"name": "StatefulPartitionedCall/sequential_1/dense_3/BiasAdd/ReadVariableOp", "op": "Const", "attr": {"dtype": {"type": "DT_FLOAT"}, "value": {"tensor": {"dtype": "DT_FLOAT", "tensorShape": {"dim": [{"size": "2"}]}}}}}, {"name": "lstm_2_input", "op": "Placeholder", "attr": {"shape": {"shape": {"dim": [{"size": "-1"}, {"size": "11"}, {"size": "1"}]}}, "dtype": {"type": "DT_FLOAT"}}}, {"name": "StatefulPartitionedCall/sequential_1/lstm_2/Shape", "op": "Shape", "input": ["lstm_2_input"], "attr": {"out_type": {"type": "DT_INT32"}, "T": {"type": "DT_FLOAT"}}}, {"name": "StatefulPartitionedCall/sequential_1/lstm_2/transpose", "op": "Transpose", "input": ["lstm_2_input", "StatefulPartitionedCall/sequential_1/lstm_2/transpose/perm"], "attr": {"T": {"type": "DT_FLOAT"}, "Tperm": {"type": "DT_INT32"}}}, {"name": "StatefulPartitionedCall/sequential_1/lstm_2/strided_slice", "op": "StridedSlice", "input": ["StatefulPartitionedCall/sequential_1/lstm_2/Shape", "StatefulPartitionedCall/sequential_1/lstm_2/strided_slice/stack", "StatefulPartitionedCall/sequential_1/lstm_2/strided_slice/stack_1", "StatefulPartitionedCall/sequential_1/lstm_2/strided_slice/stack_2"], "attr": {"shrink_axis_mask": {"i": "1"}, "begin_mask": {"i": "0"}, "T": {"type": "DT_INT32"}, "end_mask": {"i": "0"}, "ellipsis_mask": {"i": "0"}, "new_axis_mask": {"i": "0"}, "Index": {"type": "DT_INT32"}}}, {"name": "StatefulPartitionedCall/sequential_1/lstm_2/Shape_1", "op": "Shape", "input": ["StatefulPartitionedCall/sequential_1/lstm_2/transpose"], "attr": {"out_type": {"type": "DT_INT32"}, "T": {"type": "DT_FLOAT"}}}, {"name": "StatefulPartitionedCall/sequential_1/lstm_2/TensorArrayUnstack/TensorListFromTensor", "op": "TensorListFromTensor", "input": ["StatefulPartitionedCall/sequential_1/lstm_2/transpose", "StatefulPartitionedCall/sequential_1/lstm_2/TensorArrayUnstack/TensorListFromTensor/element_shape"], "attr": {"element_dtype": {"type": "DT_FLOAT"}, "shape_type": {"type": "DT_INT32"}}, "experimentalType": {"typeId": "TFT_PRODUCT", "args": [{"typeId": "TFT_ARRAY", "args": [{"typeId": "TFT_TENSOR", "args": [{"typeId": "TFT_FLOAT"}]}]}]}}, {"name": "StatefulPartitionedCall/sequential_1/lstm_2/zeros/packed", "op": "Pack", "input": ["StatefulPartitionedCall/sequential_1/lstm_2/strided_slice", "StatefulPartitionedCall/sequential_1/lstm_2/zeros/packed/1"], "attr": {"T": {"type": "DT_INT32"}, "axis": {"i": "0"}, "N": {"i": "2"}}}, {"name": "StatefulPartitionedCall/sequential_1/lstm_2/zeros_1/packed", "op": "Pack", "input": ["StatefulPartitionedCall/sequential_1/lstm_2/strided_slice", "StatefulPartitionedCall/sequential_1/lstm_2/zeros_1/packed/1"], "attr": {"T": {"type": "DT_INT32"}, "axis": {"i": "0"}, "N": {"i": "2"}}}, {"name": "StatefulPartitionedCall/sequential_1/lstm_2/strided_slice_1", "op": "StridedSlice", "input": ["StatefulPartitionedCall/sequential_1/lstm_2/Shape_1", "StatefulPartitionedCall/sequential_1/lstm_2/strided_slice_1/stack", "StatefulPartitionedCall/sequential_1/lstm_2/strided_slice_1/stack_1", "StatefulPartitionedCall/sequential_1/lstm_2/strided_slice_1/stack_2"], "attr": {"shrink_axis_mask": {"i": "1"}, "end_mask": {"i": "0"}, "begin_mask": {"i": "0"}, "new_axis_mask": {"i": "0"}, "T": {"type": "DT_INT32"}, "Index": {"type": "DT_INT32"}, "ellipsis_mask": {"i": "0"}}}, {"name": "StatefulPartitionedCall/sequential_1/lstm_2/zeros", "op": "Fill", "input": ["StatefulPartitionedCall/sequential_1/lstm_2/zeros/packed", "StatefulPartitionedCall/sequential_1/lstm_2/zeros/Const"], "attr": {"index_type": {"type": "DT_INT32"}, "T": {"type": "DT_FLOAT"}}}, {"name": "StatefulPartitionedCall/sequential_1/lstm_2/zeros_1", "op": "Fill", "input": ["StatefulPartitionedCall/sequential_1/lstm_2/zeros_1/packed", "StatefulPartitionedCall/sequential_1/lstm_2/zeros_1/Const"], "attr": {"index_type": {"type": "DT_INT32"}, "T": {"type": "DT_FLOAT"}}}, {"name": "StatefulPartitionedCall/sequential_1/lstm_2/TensorArrayV2_1", "op": "TensorListReserve", "input": ["StatefulPartitionedCall/sequential_1/lstm_2/TensorArrayV2_1/element_shape", "StatefulPartitionedCall/sequential_1/lstm_2/strided_slice_1"], "attr": {"shape_type": {"type": "DT_INT32"}, "element_dtype": {"type": "DT_FLOAT"}}, "experimentalType": {"typeId": "TFT_PRODUCT", "args": [{"typeId": "TFT_ARRAY", "args": [{"typeId": "TFT_TENSOR", "args": [{"typeId": "TFT_FLOAT"}]}]}]}}, {"name": "StatefulPartitionedCall/sequential_1/lstm_2/while", "op": "While", "input": ["StatefulPartitionedCall/sequential_1/lstm_2/while/loop_counter", "StatefulPartitionedCall/sequential_1/lstm_2/while/maximum_iterations", "StatefulPartitionedCall/sequential_1/lstm_2/time", "StatefulPartitionedCall/sequential_1/lstm_2/TensorArrayV2_1", "StatefulPartitionedCall/sequential_1/lstm_2/zeros", "StatefulPartitionedCall/sequential_1/lstm_2/zeros_1", "StatefulPartitionedCall/sequential_1/lstm_2/strided_slice_1", "StatefulPartitionedCall/sequential_1/lstm_2/TensorArrayUnstack/TensorListFromTensor", "unknown", "unknown_0", "unknown_1"], "attr": {"body": {"func": {"name": "__inference_sequential_1_lstm_2_while_body_68492_frozen_4395"}}, "_lower_using_switch_merge": {"b": false}, "cond": {"func": {"name": "__inference_sequential_1_lstm_2_while_cond_68491_frozen_4392"}}, "T": {"list": {"type": ["DT_INT32", "DT_INT32", "DT_INT32", "DT_VARIANT", "DT_FLOAT", "DT_FLOAT", "DT_INT32", "DT_VARIANT", "DT_FLOAT", "DT_FLOAT", "DT_FLOAT"]}}, "_num_original_outputs": {"i": "11"}, "_read_only_resource_inputs": {"list": {"i": ["8", "9", "10"]}}, "_stateful_parallelism": {"b": false}, "output_shapes": {"list": {"shape": [{}, {}, {}, {}, {"dim": [{"size": "-1"}, {"size": "128"}]}, {"dim": [{"size": "-1"}, {"size": "128"}]}, {}, {}, {"dim": [{"size": "1"}, {"size": "512"}]}, {"dim": [{"size": "128"}, {"size": "512"}]}, {"dim": [{"size": "512"}]}]}}, "parallel_iterations": {"i": "32"}}}, {"name": "StatefulPartitionedCall/sequential_1/lstm_2/TensorArrayV2Stack/TensorListStack", "op": "TensorListStack", "input": ["StatefulPartitionedCall/sequential_1/lstm_2/while:3", "StatefulPartitionedCall/sequential_1/lstm_2/TensorArrayV2Stack/TensorListStack/element_shape"], "attr": {"num_elements": {"i": "-1"}, "element_dtype": {"type": "DT_FLOAT"}}}, {"name": "StatefulPartitionedCall/sequential_1/lstm_2/transpose_1", "op": "Transpose", "input": ["StatefulPartitionedCall/sequential_1/lstm_2/TensorArrayV2Stack/TensorListStack", "StatefulPartitionedCall/sequential_1/lstm_2/transpose_1/perm"], "attr": {"Tperm": {"type": "DT_INT32"}, "T": {"type": "DT_FLOAT"}}}, {"name": "StatefulPartitionedCall/sequential_1/lstm_3/Shape_1", "op": "Shape", "input": ["StatefulPartitionedCall/sequential_1/lstm_2/TensorArrayV2Stack/TensorListStack"], "attr": {"T": {"type": "DT_FLOAT"}, "out_type": {"type": "DT_INT32"}}}, {"name": "StatefulPartitionedCall/sequential_1/lstm_3/TensorArrayUnstack/TensorListFromTensor", "op": "TensorListFromTensor", "input": ["StatefulPartitionedCall/sequential_1/lstm_2/TensorArrayV2Stack/TensorListStack", "StatefulPartitionedCall/sequential_1/lstm_3/TensorArrayUnstack/TensorListFromTensor/element_shape"], "attr": {"element_dtype": {"type": "DT_FLOAT"}, "shape_type": {"type": "DT_INT32"}}, "experimentalType": {"typeId": "TFT_PRODUCT", "args": [{"typeId": "TFT_ARRAY", "args": [{"typeId": "TFT_TENSOR", "args": [{"typeId": "TFT_FLOAT"}]}]}]}}, {"name": "StatefulPartitionedCall/sequential_1/lstm_3/Shape", "op": "Shape", "input": ["StatefulPartitionedCall/sequential_1/lstm_2/transpose_1"], "attr": {"T": {"type": "DT_FLOAT"}, "out_type": {"type": "DT_INT32"}}}, {"name": "StatefulPartitionedCall/sequential_1/lstm_3/strided_slice_1", "op": "StridedSlice", "input": ["StatefulPartitionedCall/sequential_1/lstm_3/Shape_1", "StatefulPartitionedCall/sequential_1/lstm_3/strided_slice_1/stack", "StatefulPartitionedCall/sequential_1/lstm_3/strided_slice_1/stack_1", "StatefulPartitionedCall/sequential_1/lstm_3/strided_slice_1/stack_2"], "attr": {"new_axis_mask": {"i": "0"}, "shrink_axis_mask": {"i": "1"}, "T": {"type": "DT_INT32"}, "ellipsis_mask": {"i": "0"}, "end_mask": {"i": "0"}, "Index": {"type": "DT_INT32"}, "begin_mask": {"i": "0"}}}, {"name": "StatefulPartitionedCall/sequential_1/lstm_3/strided_slice", "op": "StridedSlice", "input": ["StatefulPartitionedCall/sequential_1/lstm_3/Shape", "StatefulPartitionedCall/sequential_1/lstm_3/strided_slice/stack", "StatefulPartitionedCall/sequential_1/lstm_3/strided_slice/stack_1", "StatefulPartitionedCall/sequential_1/lstm_3/strided_slice/stack_2"], "attr": {"new_axis_mask": {"i": "0"}, "T": {"type": "DT_INT32"}, "Index": {"type": "DT_INT32"}, "ellipsis_mask": {"i": "0"}, "end_mask": {"i": "0"}, "shrink_axis_mask": {"i": "1"}, "begin_mask": {"i": "0"}}}, {"name": "StatefulPartitionedCall/sequential_1/lstm_3/TensorArrayV2_1", "op": "TensorListReserve", "input": ["StatefulPartitionedCall/sequential_1/lstm_3/TensorArrayV2_1/element_shape", "StatefulPartitionedCall/sequential_1/lstm_3/strided_slice_1"], "attr": {"shape_type": {"type": "DT_INT32"}, "element_dtype": {"type": "DT_FLOAT"}}, "experimentalType": {"typeId": "TFT_PRODUCT", "args": [{"typeId": "TFT_ARRAY", "args": [{"typeId": "TFT_TENSOR", "args": [{"typeId": "TFT_FLOAT"}]}]}]}}, {"name": "StatefulPartitionedCall/sequential_1/lstm_3/zeros/packed", "op": "Pack", "input": ["StatefulPartitionedCall/sequential_1/lstm_3/strided_slice", "StatefulPartitionedCall/sequential_1/lstm_3/zeros/packed/1"], "attr": {"axis": {"i": "0"}, "T": {"type": "DT_INT32"}, "N": {"i": "2"}}}, {"name": "StatefulPartitionedCall/sequential_1/lstm_3/zeros_1/packed", "op": "Pack", "input": ["StatefulPartitionedCall/sequential_1/lstm_3/strided_slice", "StatefulPartitionedCall/sequential_1/lstm_3/zeros_1/packed/1"], "attr": {"N": {"i": "2"}, "axis": {"i": "0"}, "T": {"type": "DT_INT32"}}}, {"name": "StatefulPartitionedCall/sequential_1/lstm_3/zeros", "op": "Fill", "input": ["StatefulPartitionedCall/sequential_1/lstm_3/zeros/packed", "StatefulPartitionedCall/sequential_1/lstm_3/zeros/Const"], "attr": {"T": {"type": "DT_FLOAT"}, "index_type": {"type": "DT_INT32"}}}, {"name": "StatefulPartitionedCall/sequential_1/lstm_3/zeros_1", "op": "Fill", "input": ["StatefulPartitionedCall/sequential_1/lstm_3/zeros_1/packed", "StatefulPartitionedCall/sequential_1/lstm_3/zeros_1/Const"], "attr": {"T": {"type": "DT_FLOAT"}, "index_type": {"type": "DT_INT32"}}}, {"name": "StatefulPartitionedCall/sequential_1/lstm_3/while", "op": "While", "input": ["StatefulPartitionedCall/sequential_1/lstm_3/while/loop_counter", "StatefulPartitionedCall/sequential_1/lstm_3/while/maximum_iterations", "StatefulPartitionedCall/sequential_1/lstm_3/time", "StatefulPartitionedCall/sequential_1/lstm_3/TensorArrayV2_1", "StatefulPartitionedCall/sequential_1/lstm_3/zeros", "StatefulPartitionedCall/sequential_1/lstm_3/zeros_1", "StatefulPartitionedCall/sequential_1/lstm_3/strided_slice_1", "StatefulPartitionedCall/sequential_1/lstm_3/TensorArrayUnstack/TensorListFromTensor", "unknown_2", "unknown_3", "unknown_4"], "attr": {"_stateful_parallelism": {"b": false}, "parallel_iterations": {"i": "32"}, "body": {"func": {"name": "__inference_sequential_1_lstm_3_while_body_68632_frozen_4394"}}, "output_shapes": {"list": {"shape": [{}, {}, {}, {}, {"dim": [{"size": "-1"}, {"size": "128"}]}, {"dim": [{"size": "-1"}, {"size": "128"}]}, {}, {}, {"dim": [{"size": "128"}, {"size": "512"}]}, {"dim": [{"size": "128"}, {"size": "512"}]}, {"dim": [{"size": "512"}]}]}}, "_lower_using_switch_merge": {"b": false}, "cond": {"func": {"name": "__inference_sequential_1_lstm_3_while_cond_68631_frozen_4393"}}, "_num_original_outputs": {"i": "11"}, "T": {"list": {"type": ["DT_INT32", "DT_INT32", "DT_INT32", "DT_VARIANT", "DT_FLOAT", "DT_FLOAT", "DT_INT32", "DT_VARIANT", "DT_FLOAT", "DT_FLOAT", "DT_FLOAT"]}}, "_read_only_resource_inputs": {"list": {"i": ["8", "9", "10"]}}}}, {"name": "StatefulPartitionedCall/sequential_1/lstm_3/TensorArrayV2Stack/TensorListStack", "op": "TensorListStack", "input": ["StatefulPartitionedCall/sequential_1/lstm_3/while:3", "StatefulPartitionedCall/sequential_1/lstm_3/TensorArrayV2Stack/TensorListStack/element_shape"], "attr": {"element_dtype": {"type": "DT_FLOAT"}, "num_elements": {"i": "-1"}}}, {"name": "StatefulPartitionedCall/sequential_1/lstm_3/strided_slice_3", "op": "StridedSlice", "input": ["StatefulPartitionedCall/sequential_1/lstm_3/TensorArrayV2Stack/TensorListStack", "StatefulPartitionedCall/sequential_1/lstm_3/strided_slice_3/stack", "StatefulPartitionedCall/sequential_1/lstm_3/strided_slice_3/stack_1", "StatefulPartitionedCall/sequential_1/lstm_3/strided_slice_3/stack_2"], "attr": {"new_axis_mask": {"i": "0"}, "Index": {"type": "DT_INT32"}, "T": {"type": "DT_FLOAT"}, "begin_mask": {"i": "0"}, "shrink_axis_mask": {"i": "1"}, "end_mask": {"i": "0"}, "ellipsis_mask": {"i": "0"}}}, {"name": "StatefulPartitionedCall/sequential_1/dense_2/Relu", "op": "_FusedMatMul", "input": ["StatefulPartitionedCall/sequential_1/lstm_3/strided_slice_3", "StatefulPartitionedCall/sequential_1/dense_2/MatMul/ReadVariableOp", "StatefulPartitionedCall/sequential_1/dense_2/BiasAdd/ReadVariableOp"], "device": "/device:CPU:0", "attr": {"transpose_a": {"b": false}, "num_args": {"i": "1"}, "transpose_b": {"b": false}, "T": {"type": "DT_FLOAT"}, "fused_ops": {"list": {"s": ["Qmlhc0FkZA==", "UmVsdQ=="]}}, "epsilon": {"f": 0.0}}}, {"name": "StatefulPartitionedCall/sequential_1/dense_3/BiasAdd", "op": "_FusedMatMul", "input": ["StatefulPartitionedCall/sequential_1/dense_2/Relu", "StatefulPartitionedCall/sequential_1/dense_3/MatMul/ReadVariableOp", "StatefulPartitionedCall/sequential_1/dense_3/BiasAdd/ReadVariableOp"], "device": "/device:CPU:0", "attr": {"T": {"type": "DT_FLOAT"}, "transpose_b": {"b": false}, "num_args": {"i": "1"}, "fused_ops": {"list": {"s": ["Qmlhc0FkZA=="]}}, "transpose_a": {"b": false}, "epsilon": {"f": 0.0}}}, {"name": "StatefulPartitionedCall/sequential_1/dense_3/Softmax", "op": "Softmax", "input": ["StatefulPartitionedCall/sequential_1/dense_3/BiasAdd"], "attr": {"T": {"type": "DT_FLOAT"}}}, {"name": "Identity", "op": "Identity", "input": ["StatefulPartitionedCall/sequential_1/dense_3/Softmax"], "attr": {"T": {"type": "DT_FLOAT"}}}], "library": {"function": [{"signature": {"name": "__inference_sequential_1_lstm_2_while_cond_68491_frozen_4392", "inputArg": [{"name": "sequential_1_lstm_2_while_sequential_1_lstm_2_while_loop_counter", "type": "DT_INT32"}, {"name": "sequential_1_lstm_2_while_sequential_1_lstm_2_while_maximum_iterations", "type": "DT_INT32"}, {"name": "sequential_1_lstm_2_while_placeholder", "type": "DT_INT32"}, {"name": "sequential_1_lstm_2_while_placeholder_1", "type": "DT_VARIANT"}, {"name": "sequential_1_lstm_2_while_placeholder_2", "type": "DT_FLOAT"}, {"name": "sequential_1_lstm_2_while_placeholder_3", "type": "DT_FLOAT"}, {"name": "sequential_1_lstm_2_while_less_sequential_1_lstm_2_strided_slice_1", "type": "DT_INT32"}, {"name": "sequential_1_lstm_2_while_sequential_1_lstm_2_while_cond_68491___redundant_placeholder0", "type": "DT_VARIANT"}, {"name": "sequential_1_lstm_2_while_sequential_1_lstm_2_while_cond_68491___redundant_placeholder1", "type": "DT_FLOAT"}, {"name": "sequential_1_lstm_2_while_sequential_1_lstm_2_while_cond_68491___redundant_placeholder2", "type": "DT_FLOAT"}, {"name": "sequential_1_lstm_2_while_sequential_1_lstm_2_while_cond_68491___redundant_placeholder3", "type": "DT_FLOAT"}], "outputArg": [{"name": "sequential_1_lstm_2_while_identity", "type": "DT_BOOL"}]}, "nodeDef": [{"name": "sequential_1/lstm_2/while/Less", "op": "Less", "input": ["sequential_1_lstm_2_while_placeholder", "sequential_1_lstm_2_while_less_sequential_1_lstm_2_strided_slice_1"], "attr": {"T": {"type": "DT_INT32"}}}], "ret": {"sequential_1_lstm_2_while_identity": "sequential_1/lstm_2/while/Less:z:0"}, "attr": {"_construction_context": {"s": "a0VhZ2VyUnVudGltZQ=="}}, "argAttr": {"3": {"attr": {"_output_shapes": {"list": {"shape": [{}]}}}}, "6": {"attr": {"_output_shapes": {"list": {"shape": [{}]}}}}, "1": {"attr": {"_output_shapes": {"list": {"shape": [{}]}}}}, "2": {"attr": {"_output_shapes": {"list": {"shape": [{}]}}}}, "5": {"attr": {"_output_shapes": {"list": {"shape": [{"dim": [{"size": "-1"}, {"size": "128"}]}]}}}}, "4": {"attr": {"_output_shapes": {"list": {"shape": [{"dim": [{"size": "-1"}, {"size": "128"}]}]}}}}, "0": {"attr": {"_output_shapes": {"list": {"shape": [{}]}}}}, "7": {"attr": {"_output_shapes": {"list": {"shape": [{"unknownRank": true}]}}}}}}, {"signature": {"name": "__inference_sequential_1_lstm_3_while_body_68632_frozen_4394", "inputArg": [{"name": "sequential_1_lstm_3_while_sequential_1_lstm_3_while_loop_counter", "type": "DT_INT32"}, {"name": "sequential_1_lstm_3_while_sequential_1_lstm_3_while_maximum_iterations", "type": "DT_INT32"}, {"name": "sequential_1_lstm_3_while_placeholder", "type": "DT_INT32"}, {"name": "sequential_1_lstm_3_while_placeholder_1", "type": "DT_VARIANT"}, {"name": "sequential_1_lstm_3_while_placeholder_2", "type": "DT_FLOAT"}, {"name": "sequential_1_lstm_3_while_placeholder_3", "type": "DT_FLOAT"}, {"name": "sequential_1_lstm_3_while_sequential_1_lstm_3_strided_slice_1_0", "type": "DT_INT32"}, {"name": "sequential_1_lstm_3_while_tensorarrayv2read_tensorlistgetitem_sequential_1_lstm_3_tensorarrayunstack_tensorlistfromtensor_0", "type": "DT_VARIANT"}, {"name": "sequential_1_lstm_3_while_lstm_cell_3_matmul_readvariableop_resource_0", "type": "DT_FLOAT"}, {"name": "sequential_1_lstm_3_while_lstm_cell_3_matmul_1_readvariableop_resource_0", "type": "DT_FLOAT"}, {"name": "sequential_1_lstm_3_while_lstm_cell_3_biasadd_readvariableop_resource_0", "type": "DT_FLOAT"}], "outputArg": [{"name": "sequential_1_lstm_3_while_identity", "type": "DT_INT32"}, {"name": "sequential_1_lstm_3_while_identity_1", "type": "DT_INT32"}, {"name": "sequential_1_lstm_3_while_identity_2", "type": "DT_INT32"}, {"name": "sequential_1_lstm_3_while_identity_3", "type": "DT_VARIANT"}, {"name": "sequential_1_lstm_3_while_identity_4", "type": "DT_FLOAT"}, {"name": "sequential_1_lstm_3_while_identity_5", "type": "DT_FLOAT"}, {"name": "sequential_1_lstm_3_while_sequential_1_lstm_3_strided_slice_1", "type": "DT_INT32"}, {"name": "sequential_1_lstm_3_while_tensorarrayv2read_tensorlistgetitem_sequential_1_lstm_3_tensorarrayunstack_tensorlistfromtensor", "type": "DT_VARIANT"}, {"name": "sequential_1_lstm_3_while_lstm_cell_3_matmul_readvariableop_resource", "type": "DT_FLOAT"}, {"name": "sequential_1_lstm_3_while_lstm_cell_3_matmul_1_readvariableop_resource", "type": "DT_FLOAT"}, {"name": "sequential_1_lstm_3_while_lstm_cell_3_biasadd_readvariableop_resource", "type": "DT_FLOAT"}], "isStateful": true, "controlOutput": ["sequential_1/lstm_3/while/lstm_cell_3/BiasAdd/ReadVariableOp", "sequential_1/lstm_3/while/lstm_cell_3/MatMul/ReadVariableOp", "sequential_1/lstm_3/while/lstm_cell_3/MatMul_1/ReadVariableOp"]}, "nodeDef": [{"name": "__inference_sequential_1_lstm_3_while_body_68632_frozen_4394/sequential_1/lstm_3/while/add/y", "op": "Const", "attr": {"dtype": {"type": "DT_INT32"}, "value": {"tensor": {"dtype": "DT_INT32", "tensorShape": {}}}}}, {"name": "__inference_sequential_1_lstm_3_while_body_68632_frozen_4394/sequential_1/lstm_3/while/lstm_cell_3/split/split_dim", "op": "Const", "attr": {"dtype": {"type": "DT_INT32"}, "value": {"tensor": {"dtype": "DT_INT32", "tensorShape": {}}}}}, {"name": "__inference_sequential_1_lstm_3_while_body_68632_frozen_4394/sequential_1/lstm_3/while/TensorArrayV2Read/TensorListGetItem/element_shape", "op": "Const", "attr": {"dtype": {"type": "DT_INT32"}, "value": {"tensor": {"dtype": "DT_INT32", "tensorShape": {"dim": [{"size": "2"}]}}}}}, {"name": "__inference_sequential_1_lstm_3_while_body_68632_frozen_4394/sequential_1/lstm_3/while/add_1/y", "op": "Const", "attr": {"value": {"tensor": {"dtype": "DT_INT32", "tensorShape": {}}}, "dtype": {"type": "DT_INT32"}}}, {"name": "sequential_1/lstm_3/while/lstm_cell_3/MatMul/ReadVariableOp", "op": "Identity", "input": ["sequential_1_lstm_3_while_lstm_cell_3_matmul_readvariableop_resource_0"], "attr": {"T": {"type": "DT_FLOAT"}}}, {"name": "sequential_1/lstm_3/while/lstm_cell_3/MatMul_1/ReadVariableOp", "op": "Identity", "input": ["sequential_1_lstm_3_while_lstm_cell_3_matmul_1_readvariableop_resource_0"], "attr": {"T": {"type": "DT_FLOAT"}}}, {"name": "sequential_1/lstm_3/while/lstm_cell_3/BiasAdd/ReadVariableOp", "op": "Identity", "input": ["sequential_1_lstm_3_while_lstm_cell_3_biasadd_readvariableop_resource_0"], "attr": {"T": {"type": "DT_FLOAT"}}}, {"name": "sequential_1/lstm_3/while/add", "op": "AddV2", "input": ["sequential_1_lstm_3_while_placeholder", "__inference_sequential_1_lstm_3_while_body_68632_frozen_4394/sequential_1/lstm_3/while/add/y:output:0"], "attr": {"T": {"type": "DT_INT32"}}}, {"name": "sequential_1/lstm_3/while/TensorArrayV2Read/TensorListGetItem", "op": "TensorListGetItem", "input": ["sequential_1_lstm_3_while_tensorarrayv2read_tensorlistgetitem_sequential_1_lstm_3_tensorarrayunstack_tensorlistfromtensor_0", "sequential_1_lstm_3_while_placeholder", "__inference_sequential_1_lstm_3_while_body_68632_frozen_4394/sequential_1/lstm_3/while/TensorArrayV2Read/TensorListGetItem/element_shape:output:0"], "attr": {"element_dtype": {"type": "DT_FLOAT"}}}, {"name": "sequential_1/lstm_3/while/add_1", "op": "AddV2", "input": ["sequential_1_lstm_3_while_sequential_1_lstm_3_while_loop_counter", "__inference_sequential_1_lstm_3_while_body_68632_frozen_4394/sequential_1/lstm_3/while/add_1/y:output:0"], "attr": {"T": {"type": "DT_INT32"}}}, {"name": "sequential_1/lstm_3/while/lstm_cell_3/MatMul_1", "op": "MatMul", "input": ["sequential_1_lstm_3_while_placeholder_2", "sequential_1/lstm_3/while/lstm_cell_3/MatMul_1/ReadVariableOp:output:0"], "attr": {"transpose_a": {"b": false}, "T": {"type": "DT_FLOAT"}, "transpose_b": {"b": false}}}, {"name": "sequential_1/lstm_3/while/NoOp", "op": "NoOp", "input": ["^sequential_1/lstm_3/while/lstm_cell_3/BiasAdd/ReadVariableOp", "^sequential_1/lstm_3/while/lstm_cell_3/MatMul/ReadVariableOp", "^sequential_1/lstm_3/while/lstm_cell_3/MatMul_1/ReadVariableOp"], "attr": {"_acd_function_control_output": {"b": true}}}, {"name": "sequential_1/lstm_3/while/lstm_cell_3/MatMul", "op": "MatMul", "input": ["sequential_1/lstm_3/while/TensorArrayV2Read/TensorListGetItem:item:0", "sequential_1/lstm_3/while/lstm_cell_3/MatMul/ReadVariableOp:output:0"], "attr": {"T": {"type": "DT_FLOAT"}, "transpose_b": {"b": false}, "transpose_a": {"b": false}}}, {"name": "sequential_1/lstm_3/while/Identity_1", "op": "Identity", "input": ["sequential_1_lstm_3_while_sequential_1_lstm_3_while_maximum_iterations", "^sequential_1/lstm_3/while/NoOp"], "attr": {"T": {"type": "DT_INT32"}}}, {"name": "sequential_1/lstm_3/while/Identity_2", "op": "Identity", "input": ["sequential_1/lstm_3/while/add:z:0", "^sequential_1/lstm_3/while/NoOp"], "attr": {"T": {"type": "DT_INT32"}}}, {"name": "sequential_1/lstm_3/while/Identity", "op": "Identity", "input": ["sequential_1/lstm_3/while/add_1:z:0", "^sequential_1/lstm_3/while/NoOp"], "attr": {"T": {"type": "DT_INT32"}}}, {"name": "sequential_1/lstm_3/while/lstm_cell_3/add", "op": "AddV2", "input": ["sequential_1/lstm_3/while/lstm_cell_3/MatMul:product:0", "sequential_1/lstm_3/while/lstm_cell_3/MatMul_1:product:0"], "attr": {"T": {"type": "DT_FLOAT"}}}, {"name": "sequential_1/lstm_3/while/lstm_cell_3/BiasAdd", "op": "BiasAdd", "input": ["sequential_1/lstm_3/while/lstm_cell_3/add:z:0", "sequential_1/lstm_3/while/lstm_cell_3/BiasAdd/ReadVariableOp:output:0"], "attr": {"data_format": {"s": "TkhXQw=="}, "T": {"type": "DT_FLOAT"}}}, {"name": "sequential_1/lstm_3/while/lstm_cell_3/split", "op": "Split", "input": ["__inference_sequential_1_lstm_3_while_body_68632_frozen_4394/sequential_1/lstm_3/while/lstm_cell_3/split/split_dim:output:0", "sequential_1/lstm_3/while/lstm_cell_3/BiasAdd:output:0"], "attr": {"num_split": {"i": "4"}, "T": {"type": "DT_FLOAT"}}}, {"name": "sequential_1/lstm_3/while/lstm_cell_3/Sigmoid", "op": "Sigmoid", "input": ["sequential_1/lstm_3/while/lstm_cell_3/split:output:0"], "attr": {"T": {"type": "DT_FLOAT"}}}, {"name": "sequential_1/lstm_3/while/lstm_cell_3/Sigmoid_1", "op": "Sigmoid", "input": ["sequential_1/lstm_3/while/lstm_cell_3/split:output:1"], "attr": {"T": {"type": "DT_FLOAT"}}}, {"name": "sequential_1/lstm_3/while/lstm_cell_3/Relu", "op": "Relu", "input": ["sequential_1/lstm_3/while/lstm_cell_3/split:output:2"], "attr": {"T": {"type": "DT_FLOAT"}}}, {"name": "sequential_1/lstm_3/while/lstm_cell_3/Sigmoid_2", "op": "Sigmoid", "input": ["sequential_1/lstm_3/while/lstm_cell_3/split:output:3"], "attr": {"T": {"type": "DT_FLOAT"}}}, {"name": "sequential_1/lstm_3/while/lstm_cell_3/mul", "op": "Mul", "input": ["sequential_1/lstm_3/while/lstm_cell_3/Sigmoid_1:y:0", "sequential_1_lstm_3_while_placeholder_3"], "attr": {"T": {"type": "DT_FLOAT"}}}, {"name": "sequential_1/lstm_3/while/lstm_cell_3/mul_1", "op": "Mul", "input": ["sequential_1/lstm_3/while/lstm_cell_3/Sigmoid:y:0", "sequential_1/lstm_3/while/lstm_cell_3/Relu:activations:0"], "attr": {"T": {"type": "DT_FLOAT"}}}, {"name": "sequential_1/lstm_3/while/lstm_cell_3/add_1", "op": "AddV2", "input": ["sequential_1/lstm_3/while/lstm_cell_3/mul:z:0", "sequential_1/lstm_3/while/lstm_cell_3/mul_1:z:0"], "attr": {"T": {"type": "DT_FLOAT"}}}, {"name": "sequential_1/lstm_3/while/lstm_cell_3/Relu_1", "op": "Relu", "input": ["sequential_1/lstm_3/while/lstm_cell_3/add_1:z:0"], "attr": {"T": {"type": "DT_FLOAT"}}}, {"name": "sequential_1/lstm_3/while/Identity_5", "op": "Identity", "input": ["sequential_1/lstm_3/while/lstm_cell_3/add_1:z:0", "^sequential_1/lstm_3/while/NoOp"], "attr": {"T": {"type": "DT_FLOAT"}}}, {"name": "sequential_1/lstm_3/while/lstm_cell_3/mul_2", "op": "Mul", "input": ["sequential_1/lstm_3/while/lstm_cell_3/Sigmoid_2:y:0", "sequential_1/lstm_3/while/lstm_cell_3/Relu_1:activations:0"], "attr": {"T": {"type": "DT_FLOAT"}}}, {"name": "sequential_1/lstm_3/while/TensorArrayV2Write/TensorListSetItem", "op": "TensorListSetItem", "input": ["sequential_1_lstm_3_while_placeholder_1", "sequential_1_lstm_3_while_placeholder", "sequential_1/lstm_3/while/lstm_cell_3/mul_2:z:0"], "attr": {"element_dtype": {"type": "DT_FLOAT"}}, "experimentalType": {"typeId": "TFT_PRODUCT", "args": [{"typeId": "TFT_ARRAY", "args": [{"typeId": "TFT_TENSOR", "args": [{"typeId": "TFT_FLOAT"}]}]}, {"typeId": "TFT_ARRAY", "args": [{"typeId": "TFT_TENSOR", "args": [{"typeId": "TFT_FLOAT"}]}]}, {"typeId": "TFT_ARRAY", "args": [{"typeId": "TFT_TENSOR", "args": [{"typeId": "TFT_FLOAT"}]}]}, {"typeId": "TFT_ARRAY", "args": [{"typeId": "TFT_TENSOR", "args": [{"typeId": "TFT_FLOAT"}]}]}, {"typeId": "TFT_ARRAY", "args": [{"typeId": "TFT_TENSOR", "args": [{"typeId": "TFT_FLOAT"}]}]}]}}, {"name": "sequential_1/lstm_3/while/Identity_4", "op": "Identity", "input": ["sequential_1/lstm_3/while/lstm_cell_3/mul_2:z:0", "^sequential_1/lstm_3/while/NoOp"], "attr": {"T": {"type": "DT_FLOAT"}}}, {"name": "sequential_1/lstm_3/while/Identity_3", "op": "Identity", "input": ["sequential_1/lstm_3/while/TensorArrayV2Write/TensorListSetItem:output_handle:0", "^sequential_1/lstm_3/while/NoOp"], "attr": {"T": {"type": "DT_VARIANT"}}, "experimentalType": {"typeId": "TFT_PRODUCT", "args": [{"typeId": "TFT_ARRAY", "args": [{"typeId": "TFT_TENSOR", "args": [{"typeId": "TFT_FLOAT"}]}]}]}}], "ret": {"sequential_1_lstm_3_while_identity_5": "sequential_1/lstm_3/while/Identity_5:output:0", "sequential_1_lstm_3_while_tensorarrayv2read_tensorlistgetitem_sequential_1_lstm_3_tensorarrayunstack_tensorlistfromtensor": "sequential_1_lstm_3_while_tensorarrayv2read_tensorlistgetitem_sequential_1_lstm_3_tensorarrayunstack_tensorlistfromtensor_0", "sequential_1_lstm_3_while_identity_1": "sequential_1/lstm_3/while/Identity_1:output:0", "sequential_1_lstm_3_while_sequential_1_lstm_3_strided_slice_1": "sequential_1_lstm_3_while_sequential_1_lstm_3_strided_slice_1_0", "sequential_1_lstm_3_while_identity_3": "sequential_1/lstm_3/while/Identity_3:output:0", "sequential_1_lstm_3_while_identity": "sequential_1/lstm_3/while/Identity:output:0", "sequential_1_lstm_3_while_lstm_cell_3_matmul_readvariableop_resource": "sequential_1_lstm_3_while_lstm_cell_3_matmul_readvariableop_resource_0", "sequential_1_lstm_3_while_identity_2": "sequential_1/lstm_3/while/Identity_2:output:0", "sequential_1_lstm_3_while_identity_4": "sequential_1/lstm_3/while/Identity_4:output:0", "sequential_1_lstm_3_while_lstm_cell_3_matmul_1_readvariableop_resource": "sequential_1_lstm_3_while_lstm_cell_3_matmul_1_readvariableop_resource_0", "sequential_1_lstm_3_while_lstm_cell_3_biasadd_readvariableop_resource": "sequential_1_lstm_3_while_lstm_cell_3_biasadd_readvariableop_resource_0"}, "attr": {"_construction_context": {"s": "a0VhZ2VyUnVudGltZQ=="}}, "controlRet": {"sequential_1/lstm_3/while/lstm_cell_3/MatMul/ReadVariableOp": "sequential_1/lstm_3/while/lstm_cell_3/MatMul/ReadVariableOp", "sequential_1/lstm_3/while/lstm_cell_3/MatMul_1/ReadVariableOp": "sequential_1/lstm_3/while/lstm_cell_3/MatMul_1/ReadVariableOp", "sequential_1/lstm_3/while/lstm_cell_3/BiasAdd/ReadVariableOp": "sequential_1/lstm_3/while/lstm_cell_3/BiasAdd/ReadVariableOp"}, "argAttr": {"0": {"attr": {"_output_shapes": {"list": {"shape": [{}]}}}}, "7": {"attr": {"_output_shapes": {"list": {"shape": [{}]}}}}, "3": {"attr": {"_output_shapes": {"list": {"shape": [{}]}}}}, "6": {"attr": {"_output_shapes": {"list": {"shape": [{}]}}}}, "1": {"attr": {"_output_shapes": {"list": {"shape": [{}]}}}}, "2": {"attr": {"_output_shapes": {"list": {"shape": [{}]}}}}, "4": {"attr": {"_output_shapes": {"list": {"shape": [{"dim": [{"size": "-1"}, {"size": "128"}]}]}}}}, "5": {"attr": {"_output_shapes": {"list": {"shape": [{"dim": [{"size": "-1"}, {"size": "128"}]}]}}}}}}, {"signature": {"name": "__inference_sequential_1_lstm_2_while_body_68492_frozen_4395", "inputArg": [{"name": "sequential_1_lstm_2_while_sequential_1_lstm_2_while_loop_counter", "type": "DT_INT32"}, {"name": "sequential_1_lstm_2_while_sequential_1_lstm_2_while_maximum_iterations", "type": "DT_INT32"}, {"name": "sequential_1_lstm_2_while_placeholder", "type": "DT_INT32"}, {"name": "sequential_1_lstm_2_while_placeholder_1", "type": "DT_VARIANT"}, {"name": "sequential_1_lstm_2_while_placeholder_2", "type": "DT_FLOAT"}, {"name": "sequential_1_lstm_2_while_placeholder_3", "type": "DT_FLOAT"}, {"name": "sequential_1_lstm_2_while_sequential_1_lstm_2_strided_slice_1_0", "type": "DT_INT32"}, {"name": "sequential_1_lstm_2_while_tensorarrayv2read_tensorlistgetitem_sequential_1_lstm_2_tensorarrayunstack_tensorlistfromtensor_0", "type": "DT_VARIANT"}, {"name": "sequential_1_lstm_2_while_lstm_cell_2_matmul_readvariableop_resource_0", "type": "DT_FLOAT"}, {"name": "sequential_1_lstm_2_while_lstm_cell_2_matmul_1_readvariableop_resource_0", "type": "DT_FLOAT"}, {"name": "sequential_1_lstm_2_while_lstm_cell_2_biasadd_readvariableop_resource_0", "type": "DT_FLOAT"}], "outputArg": [{"name": "sequential_1_lstm_2_while_identity", "type": "DT_INT32"}, {"name": "sequential_1_lstm_2_while_identity_1", "type": "DT_INT32"}, {"name": "sequential_1_lstm_2_while_identity_2", "type": "DT_INT32"}, {"name": "sequential_1_lstm_2_while_identity_3", "type": "DT_VARIANT"}, {"name": "sequential_1_lstm_2_while_identity_4", "type": "DT_FLOAT"}, {"name": "sequential_1_lstm_2_while_identity_5", "type": "DT_FLOAT"}, {"name": "sequential_1_lstm_2_while_sequential_1_lstm_2_strided_slice_1", "type": "DT_INT32"}, {"name": "sequential_1_lstm_2_while_tensorarrayv2read_tensorlistgetitem_sequential_1_lstm_2_tensorarrayunstack_tensorlistfromtensor", "type": "DT_VARIANT"}, {"name": "sequential_1_lstm_2_while_lstm_cell_2_matmul_readvariableop_resource", "type": "DT_FLOAT"}, {"name": "sequential_1_lstm_2_while_lstm_cell_2_matmul_1_readvariableop_resource", "type": "DT_FLOAT"}, {"name": "sequential_1_lstm_2_while_lstm_cell_2_biasadd_readvariableop_resource", "type": "DT_FLOAT"}], "isStateful": true, "controlOutput": ["sequential_1/lstm_2/while/lstm_cell_2/BiasAdd/ReadVariableOp", "sequential_1/lstm_2/while/lstm_cell_2/MatMul/ReadVariableOp", "sequential_1/lstm_2/while/lstm_cell_2/MatMul_1/ReadVariableOp"]}, "nodeDef": [{"name": "__inference_sequential_1_lstm_2_while_body_68492_frozen_4395/sequential_1/lstm_2/while/add/y", "op": "Const", "attr": {"dtype": {"type": "DT_INT32"}, "value": {"tensor": {"dtype": "DT_INT32", "tensorShape": {}}}}}, {"name": "__inference_sequential_1_lstm_2_while_body_68492_frozen_4395/sequential_1/lstm_2/while/lstm_cell_2/split/split_dim", "op": "Const", "attr": {"value": {"tensor": {"dtype": "DT_INT32", "tensorShape": {}}}, "dtype": {"type": "DT_INT32"}}}, {"name": "__inference_sequential_1_lstm_2_while_body_68492_frozen_4395/sequential_1/lstm_2/while/TensorArrayV2Read/TensorListGetItem/element_shape", "op": "Const", "attr": {"value": {"tensor": {"dtype": "DT_INT32", "tensorShape": {"dim": [{"size": "2"}]}}}, "dtype": {"type": "DT_INT32"}}}, {"name": "__inference_sequential_1_lstm_2_while_body_68492_frozen_4395/sequential_1/lstm_2/while/add_1/y", "op": "Const", "attr": {"value": {"tensor": {"dtype": "DT_INT32", "tensorShape": {}}}, "dtype": {"type": "DT_INT32"}}}, {"name": "sequential_1/lstm_2/while/lstm_cell_2/MatMul/ReadVariableOp", "op": "Identity", "input": ["sequential_1_lstm_2_while_lstm_cell_2_matmul_readvariableop_resource_0"], "attr": {"T": {"type": "DT_FLOAT"}}}, {"name": "sequential_1/lstm_2/while/lstm_cell_2/MatMul_1/ReadVariableOp", "op": "Identity", "input": ["sequential_1_lstm_2_while_lstm_cell_2_matmul_1_readvariableop_resource_0"], "attr": {"T": {"type": "DT_FLOAT"}}}, {"name": "sequential_1/lstm_2/while/lstm_cell_2/BiasAdd/ReadVariableOp", "op": "Identity", "input": ["sequential_1_lstm_2_while_lstm_cell_2_biasadd_readvariableop_resource_0"], "attr": {"T": {"type": "DT_FLOAT"}}}, {"name": "sequential_1/lstm_2/while/add", "op": "AddV2", "input": ["sequential_1_lstm_2_while_placeholder", "__inference_sequential_1_lstm_2_while_body_68492_frozen_4395/sequential_1/lstm_2/while/add/y:output:0"], "attr": {"T": {"type": "DT_INT32"}}}, {"name": "sequential_1/lstm_2/while/TensorArrayV2Read/TensorListGetItem", "op": "TensorListGetItem", "input": ["sequential_1_lstm_2_while_tensorarrayv2read_tensorlistgetitem_sequential_1_lstm_2_tensorarrayunstack_tensorlistfromtensor_0", "sequential_1_lstm_2_while_placeholder", "__inference_sequential_1_lstm_2_while_body_68492_frozen_4395/sequential_1/lstm_2/while/TensorArrayV2Read/TensorListGetItem/element_shape:output:0"], "attr": {"element_dtype": {"type": "DT_FLOAT"}}}, {"name": "sequential_1/lstm_2/while/add_1", "op": "AddV2", "input": ["sequential_1_lstm_2_while_sequential_1_lstm_2_while_loop_counter", "__inference_sequential_1_lstm_2_while_body_68492_frozen_4395/sequential_1/lstm_2/while/add_1/y:output:0"], "attr": {"T": {"type": "DT_INT32"}}}, {"name": "sequential_1/lstm_2/while/lstm_cell_2/MatMul_1", "op": "MatMul", "input": ["sequential_1_lstm_2_while_placeholder_2", "sequential_1/lstm_2/while/lstm_cell_2/MatMul_1/ReadVariableOp:output:0"], "attr": {"transpose_b": {"b": false}, "T": {"type": "DT_FLOAT"}, "transpose_a": {"b": false}}}, {"name": "sequential_1/lstm_2/while/NoOp", "op": "NoOp", "input": ["^sequential_1/lstm_2/while/lstm_cell_2/BiasAdd/ReadVariableOp", "^sequential_1/lstm_2/while/lstm_cell_2/MatMul/ReadVariableOp", "^sequential_1/lstm_2/while/lstm_cell_2/MatMul_1/ReadVariableOp"], "attr": {"_acd_function_control_output": {"b": true}}}, {"name": "sequential_1/lstm_2/while/lstm_cell_2/MatMul", "op": "MatMul", "input": ["sequential_1/lstm_2/while/TensorArrayV2Read/TensorListGetItem:item:0", "sequential_1/lstm_2/while/lstm_cell_2/MatMul/ReadVariableOp:output:0"], "attr": {"transpose_a": {"b": false}, "T": {"type": "DT_FLOAT"}, "transpose_b": {"b": false}}}, {"name": "sequential_1/lstm_2/while/Identity_1", "op": "Identity", "input": ["sequential_1_lstm_2_while_sequential_1_lstm_2_while_maximum_iterations", "^sequential_1/lstm_2/while/NoOp"], "attr": {"T": {"type": "DT_INT32"}}}, {"name": "sequential_1/lstm_2/while/Identity_2", "op": "Identity", "input": ["sequential_1/lstm_2/while/add:z:0", "^sequential_1/lstm_2/while/NoOp"], "attr": {"T": {"type": "DT_INT32"}}}, {"name": "sequential_1/lstm_2/while/Identity", "op": "Identity", "input": ["sequential_1/lstm_2/while/add_1:z:0", "^sequential_1/lstm_2/while/NoOp"], "attr": {"T": {"type": "DT_INT32"}}}, {"name": "sequential_1/lstm_2/while/lstm_cell_2/add", "op": "AddV2", "input": ["sequential_1/lstm_2/while/lstm_cell_2/MatMul:product:0", "sequential_1/lstm_2/while/lstm_cell_2/MatMul_1:product:0"], "attr": {"T": {"type": "DT_FLOAT"}}}, {"name": "sequential_1/lstm_2/while/lstm_cell_2/BiasAdd", "op": "BiasAdd", "input": ["sequential_1/lstm_2/while/lstm_cell_2/add:z:0", "sequential_1/lstm_2/while/lstm_cell_2/BiasAdd/ReadVariableOp:output:0"], "attr": {"T": {"type": "DT_FLOAT"}, "data_format": {"s": "TkhXQw=="}}}, {"name": "sequential_1/lstm_2/while/lstm_cell_2/split", "op": "Split", "input": ["__inference_sequential_1_lstm_2_while_body_68492_frozen_4395/sequential_1/lstm_2/while/lstm_cell_2/split/split_dim:output:0", "sequential_1/lstm_2/while/lstm_cell_2/BiasAdd:output:0"], "attr": {"num_split": {"i": "4"}, "T": {"type": "DT_FLOAT"}}}, {"name": "sequential_1/lstm_2/while/lstm_cell_2/Sigmoid", "op": "Sigmoid", "input": ["sequential_1/lstm_2/while/lstm_cell_2/split:output:0"], "attr": {"T": {"type": "DT_FLOAT"}}}, {"name": "sequential_1/lstm_2/while/lstm_cell_2/Sigmoid_1", "op": "Sigmoid", "input": ["sequential_1/lstm_2/while/lstm_cell_2/split:output:1"], "attr": {"T": {"type": "DT_FLOAT"}}}, {"name": "sequential_1/lstm_2/while/lstm_cell_2/Relu", "op": "Relu", "input": ["sequential_1/lstm_2/while/lstm_cell_2/split:output:2"], "attr": {"T": {"type": "DT_FLOAT"}}}, {"name": "sequential_1/lstm_2/while/lstm_cell_2/Sigmoid_2", "op": "Sigmoid", "input": ["sequential_1/lstm_2/while/lstm_cell_2/split:output:3"], "attr": {"T": {"type": "DT_FLOAT"}}}, {"name": "sequential_1/lstm_2/while/lstm_cell_2/mul", "op": "Mul", "input": ["sequential_1/lstm_2/while/lstm_cell_2/Sigmoid_1:y:0", "sequential_1_lstm_2_while_placeholder_3"], "attr": {"T": {"type": "DT_FLOAT"}}}, {"name": "sequential_1/lstm_2/while/lstm_cell_2/mul_1", "op": "Mul", "input": ["sequential_1/lstm_2/while/lstm_cell_2/Sigmoid:y:0", "sequential_1/lstm_2/while/lstm_cell_2/Relu:activations:0"], "attr": {"T": {"type": "DT_FLOAT"}}}, {"name": "sequential_1/lstm_2/while/lstm_cell_2/add_1", "op": "AddV2", "input": ["sequential_1/lstm_2/while/lstm_cell_2/mul:z:0", "sequential_1/lstm_2/while/lstm_cell_2/mul_1:z:0"], "attr": {"T": {"type": "DT_FLOAT"}}}, {"name": "sequential_1/lstm_2/while/lstm_cell_2/Relu_1", "op": "Relu", "input": ["sequential_1/lstm_2/while/lstm_cell_2/add_1:z:0"], "attr": {"T": {"type": "DT_FLOAT"}}}, {"name": "sequential_1/lstm_2/while/Identity_5", "op": "Identity", "input": ["sequential_1/lstm_2/while/lstm_cell_2/add_1:z:0", "^sequential_1/lstm_2/while/NoOp"], "attr": {"T": {"type": "DT_FLOAT"}}}, {"name": "sequential_1/lstm_2/while/lstm_cell_2/mul_2", "op": "Mul", "input": ["sequential_1/lstm_2/while/lstm_cell_2/Sigmoid_2:y:0", "sequential_1/lstm_2/while/lstm_cell_2/Relu_1:activations:0"], "attr": {"T": {"type": "DT_FLOAT"}}}, {"name": "sequential_1/lstm_2/while/TensorArrayV2Write/TensorListSetItem", "op": "TensorListSetItem", "input": ["sequential_1_lstm_2_while_placeholder_1", "sequential_1_lstm_2_while_placeholder", "sequential_1/lstm_2/while/lstm_cell_2/mul_2:z:0"], "attr": {"element_dtype": {"type": "DT_FLOAT"}}, "experimentalType": {"typeId": "TFT_PRODUCT", "args": [{"typeId": "TFT_ARRAY", "args": [{"typeId": "TFT_TENSOR", "args": [{"typeId": "TFT_FLOAT"}]}]}, {"typeId": "TFT_ARRAY", "args": [{"typeId": "TFT_TENSOR", "args": [{"typeId": "TFT_FLOAT"}]}]}, {"typeId": "TFT_ARRAY", "args": [{"typeId": "TFT_TENSOR", "args": [{"typeId": "TFT_FLOAT"}]}]}, {"typeId": "TFT_ARRAY", "args": [{"typeId": "TFT_TENSOR", "args": [{"typeId": "TFT_FLOAT"}]}]}, {"typeId": "TFT_ARRAY", "args": [{"typeId": "TFT_TENSOR", "args": [{"typeId": "TFT_FLOAT"}]}]}]}}, {"name": "sequential_1/lstm_2/while/Identity_4", "op": "Identity", "input": ["sequential_1/lstm_2/while/lstm_cell_2/mul_2:z:0", "^sequential_1/lstm_2/while/NoOp"], "attr": {"T": {"type": "DT_FLOAT"}}}, {"name": "sequential_1/lstm_2/while/Identity_3", "op": "Identity", "input": ["sequential_1/lstm_2/while/TensorArrayV2Write/TensorListSetItem:output_handle:0", "^sequential_1/lstm_2/while/NoOp"], "attr": {"T": {"type": "DT_VARIANT"}}, "experimentalType": {"typeId": "TFT_PRODUCT", "args": [{"typeId": "TFT_ARRAY", "args": [{"typeId": "TFT_TENSOR", "args": [{"typeId": "TFT_FLOAT"}]}]}]}}], "ret": {"sequential_1_lstm_2_while_identity_5": "sequential_1/lstm_2/while/Identity_5:output:0", "sequential_1_lstm_2_while_identity": "sequential_1/lstm_2/while/Identity:output:0", "sequential_1_lstm_2_while_tensorarrayv2read_tensorlistgetitem_sequential_1_lstm_2_tensorarrayunstack_tensorlistfromtensor": "sequential_1_lstm_2_while_tensorarrayv2read_tensorlistgetitem_sequential_1_lstm_2_tensorarrayunstack_tensorlistfromtensor_0", "sequential_1_lstm_2_while_lstm_cell_2_matmul_readvariableop_resource": "sequential_1_lstm_2_while_lstm_cell_2_matmul_readvariableop_resource_0", "sequential_1_lstm_2_while_identity_3": "sequential_1/lstm_2/while/Identity_3:output:0", "sequential_1_lstm_2_while_lstm_cell_2_biasadd_readvariableop_resource": "sequential_1_lstm_2_while_lstm_cell_2_biasadd_readvariableop_resource_0", "sequential_1_lstm_2_while_identity_4": "sequential_1/lstm_2/while/Identity_4:output:0", "sequential_1_lstm_2_while_lstm_cell_2_matmul_1_readvariableop_resource": "sequential_1_lstm_2_while_lstm_cell_2_matmul_1_readvariableop_resource_0", "sequential_1_lstm_2_while_identity_2": "sequential_1/lstm_2/while/Identity_2:output:0", "sequential_1_lstm_2_while_identity_1": "sequential_1/lstm_2/while/Identity_1:output:0", "sequential_1_lstm_2_while_sequential_1_lstm_2_strided_slice_1": "sequential_1_lstm_2_while_sequential_1_lstm_2_strided_slice_1_0"}, "attr": {"_construction_context": {"s": "a0VhZ2VyUnVudGltZQ=="}}, "controlRet": {"sequential_1/lstm_2/while/lstm_cell_2/MatMul/ReadVariableOp": "sequential_1/lstm_2/while/lstm_cell_2/MatMul/ReadVariableOp", "sequential_1/lstm_2/while/lstm_cell_2/BiasAdd/ReadVariableOp": "sequential_1/lstm_2/while/lstm_cell_2/BiasAdd/ReadVariableOp", "sequential_1/lstm_2/while/lstm_cell_2/MatMul_1/ReadVariableOp": "sequential_1/lstm_2/while/lstm_cell_2/MatMul_1/ReadVariableOp"}, "argAttr": {"2": {"attr": {"_output_shapes": {"list": {"shape": [{}]}}}}, "5": {"attr": {"_output_shapes": {"list": {"shape": [{"dim": [{"size": "-1"}, {"size": "128"}]}]}}}}, "4": {"attr": {"_output_shapes": {"list": {"shape": [{"dim": [{"size": "-1"}, {"size": "128"}]}]}}}}, "0": {"attr": {"_output_shapes": {"list": {"shape": [{}]}}}}, "7": {"attr": {"_output_shapes": {"list": {"shape": [{}]}}}}, "3": {"attr": {"_output_shapes": {"list": {"shape": [{}]}}}}, "6": {"attr": {"_output_shapes": {"list": {"shape": [{}]}}}}, "1": {"attr": {"_output_shapes": {"list": {"shape": [{}]}}}}}}, {"signature": {"name": "__inference_sequential_1_lstm_3_while_cond_68631_frozen_4393", "inputArg": [{"name": "sequential_1_lstm_3_while_sequential_1_lstm_3_while_loop_counter", "type": "DT_INT32"}, {"name": "sequential_1_lstm_3_while_sequential_1_lstm_3_while_maximum_iterations", "type": "DT_INT32"}, {"name": "sequential_1_lstm_3_while_placeholder", "type": "DT_INT32"}, {"name": "sequential_1_lstm_3_while_placeholder_1", "type": "DT_VARIANT"}, {"name": "sequential_1_lstm_3_while_placeholder_2", "type": "DT_FLOAT"}, {"name": "sequential_1_lstm_3_while_placeholder_3", "type": "DT_FLOAT"}, {"name": "sequential_1_lstm_3_while_less_sequential_1_lstm_3_strided_slice_1", "type": "DT_INT32"}, {"name": "sequential_1_lstm_3_while_sequential_1_lstm_3_while_cond_68631___redundant_placeholder0", "type": "DT_VARIANT"}, {"name": "sequential_1_lstm_3_while_sequential_1_lstm_3_while_cond_68631___redundant_placeholder1", "type": "DT_FLOAT"}, {"name": "sequential_1_lstm_3_while_sequential_1_lstm_3_while_cond_68631___redundant_placeholder2", "type": "DT_FLOAT"}, {"name": "sequential_1_lstm_3_while_sequential_1_lstm_3_while_cond_68631___redundant_placeholder3", "type": "DT_FLOAT"}], "outputArg": [{"name": "sequential_1_lstm_3_while_identity", "type": "DT_BOOL"}]}, "nodeDef": [{"name": "sequential_1/lstm_3/while/Less", "op": "Less", "input": ["sequential_1_lstm_3_while_placeholder", "sequential_1_lstm_3_while_less_sequential_1_lstm_3_strided_slice_1"], "attr": {"T": {"type": "DT_INT32"}}}], "ret": {"sequential_1_lstm_3_while_identity": "sequential_1/lstm_3/while/Less:z:0"}, "attr": {"_construction_context": {"s": "a0VhZ2VyUnVudGltZQ=="}}, "argAttr": {"0": {"attr": {"_output_shapes": {"list": {"shape": [{}]}}}}, "3": {"attr": {"_output_shapes": {"list": {"shape": [{}]}}}}, "7": {"attr": {"_output_shapes": {"list": {"shape": [{"unknownRank": true}]}}}}, "6": {"attr": {"_output_shapes": {"list": {"shape": [{}]}}}}, "1": {"attr": {"_output_shapes": {"list": {"shape": [{}]}}}}, "2": {"attr": {"_output_shapes": {"list": {"shape": [{}]}}}}, "4": {"attr": {"_output_shapes": {"list": {"shape": [{"dim": [{"size": "-1"}, {"size": "128"}]}]}}}}, "5": {"attr": {"_output_shapes": {"list": {"shape": [{"dim": [{"size": "-1"}, {"size": "128"}]}]}}}}}}]}, "versions": {"producer": 987, "minConsumer": 12}}, "weightsManifest": [{"paths": ["group1-shard1of1.bin"], "weights": [{"name": "StatefulPartitionedCall/sequential_1/lstm_3/while/loop_counter", "shape": [], "dtype": "int32"}, {"name": "StatefulPartitionedCall/sequential_1/lstm_3/while/maximum_iterations", "shape": [], "dtype": "int32"}, {"name": "StatefulPartitionedCall/sequential_1/lstm_3/time", "shape": [], "dtype": "int32"}, {"name": "StatefulPartitionedCall/sequential_1/lstm_3/TensorArrayV2_1/element_shape", "shape": [2], "dtype": "int32"}, {"name": "StatefulPartitionedCall/sequential_1/lstm_3/zeros/packed/1", "shape": [], "dtype": "int32"}, {"name": "StatefulPartitionedCall/sequential_1/lstm_3/zeros/Const", "shape": [], "dtype": "float32"}, {"name": "StatefulPartitionedCall/sequential_1/lstm_2/transpose_1/perm", "shape": [3], "dtype": "int32"}, {"name": "StatefulPartitionedCall/sequential_1/lstm_3/strided_slice/stack", "shape": [1], "dtype": "int32"}, {"name": "StatefulPartitionedCall/sequential_1/lstm_3/strided_slice/stack_1", "shape": [1], "dtype": "int32"}, {"name": "StatefulPartitionedCall/sequential_1/lstm_3/strided_slice/stack_2", "shape": [1], "dtype": "int32"}, {"name": "StatefulPartitionedCall/sequential_1/lstm_3/zeros_1/packed/1", "shape": [], "dtype": "int32"}, {"name": "StatefulPartitionedCall/sequential_1/lstm_3/zeros_1/Const", "shape": [], "dtype": "float32"}, {"name": "StatefulPartitionedCall/sequential_1/lstm_3/strided_slice_1/stack", "shape": [1], "dtype": "int32"}, {"name": "StatefulPartitionedCall/sequential_1/lstm_3/strided_slice_1/stack_1", "shape": [1], "dtype": "int32"}, {"name": "StatefulPartitionedCall/sequential_1/lstm_3/strided_slice_1/stack_2", "shape": [1], "dtype": "int32"}, {"name": "StatefulPartitionedCall/sequential_1/lstm_2/while/loop_counter", "shape": [], "dtype": "int32"}, {"name": "StatefulPartitionedCall/sequential_1/lstm_2/while/maximum_iterations", "shape": [], "dtype": "int32"}, {"name": "StatefulPartitionedCall/sequential_1/lstm_2/time", "shape": [], "dtype": "int32"}, {"name": "StatefulPartitionedCall/sequential_1/lstm_2/TensorArrayV2_1/element_shape", "shape": [2], "dtype": "int32"}, {"name": "StatefulPartitionedCall/sequential_1/lstm_2/zeros/packed/1", "shape": [], "dtype": "int32"}, {"name": "StatefulPartitionedCall/sequential_1/lstm_2/zeros/Const", "shape": [], "dtype": "float32"}, {"name": "StatefulPartitionedCall/sequential_1/lstm_2/strided_slice/stack", "shape": [1], "dtype": "int32"}, {"name": "StatefulPartitionedCall/sequential_1/lstm_2/strided_slice/stack_1", "shape": [1], "dtype": "int32"}, {"name": "StatefulPartitionedCall/sequential_1/lstm_2/strided_slice/stack_2", "shape": [1], "dtype": "int32"}, {"name": "StatefulPartitionedCall/sequential_1/lstm_2/zeros_1/packed/1", "shape": [], "dtype": "int32"}, {"name": "StatefulPartitionedCall/sequential_1/lstm_2/zeros_1/Const", "shape": [], "dtype": "float32"}, {"name": "StatefulPartitionedCall/sequential_1/lstm_2/strided_slice_1/stack", "shape": [1], "dtype": "int32"}, {"name": "StatefulPartitionedCall/sequential_1/lstm_2/strided_slice_1/stack_1", "shape": [1], "dtype": "int32"}, {"name": "StatefulPartitionedCall/sequential_1/lstm_2/strided_slice_1/stack_2", "shape": [1], "dtype": "int32"}, {"name": "StatefulPartitionedCall/sequential_1/lstm_2/transpose/perm", "shape": [3], "dtype": "int32"}, {"name": "StatefulPartitionedCall/sequential_1/lstm_2/TensorArrayUnstack/TensorListFromTensor/element_shape", "shape": [2], "dtype": "int32"}, {"name": "unknown", "shape": [1, 512], "dtype": "float32"}, {"name": "unknown_0", "shape": [128, 512], "dtype": "float32"}, {"name": "unknown_1", "shape": [512], "dtype": "float32"}, {"name": "StatefulPartitionedCall/sequential_1/lstm_2/TensorArrayV2Stack/TensorListStack/element_shape", "shape": [2], "dtype": "int32"}, {"name": "StatefulPartitionedCall/sequential_1/lstm_3/TensorArrayUnstack/TensorListFromTensor/element_shape", "shape": [2], "dtype": "int32"}, {"name": "unknown_2", "shape": [128, 512], "dtype": "float32"}, {"name": "unknown_3", "shape": [128, 512], "dtype": "float32"}, {"name": "unknown_4", "shape": [512], "dtype": "float32"}, {"name": "StatefulPartitionedCall/sequential_1/lstm_3/TensorArrayV2Stack/TensorListStack/element_shape", "shape": [2], "dtype": "int32"}, {"name": "StatefulPartitionedCall/sequential_1/lstm_3/strided_slice_3/stack", "shape": [1], "dtype": "int32"}, {"name": "StatefulPartitionedCall/sequential_1/lstm_3/strided_slice_3/stack_1", "shape": [1], "dtype": "int32"}, {"name": "StatefulPartitionedCall/sequential_1/lstm_3/strided_slice_3/stack_2", "shape": [1], "dtype": "int32"}, {"name": "StatefulPartitionedCall/sequential_1/dense_2/MatMul/ReadVariableOp", "shape": [128, 32], "dtype": "float32"}, {"name": "StatefulPartitionedCall/sequential_1/dense_2/BiasAdd/ReadVariableOp", "shape": [32], "dtype": "float32"}, {"name": "StatefulPartitionedCall/sequential_1/dense_3/MatMul/ReadVariableOp", "shape": [32, 2], "dtype": "float32"}, {"name": "StatefulPartitionedCall/sequential_1/dense_3/BiasAdd/ReadVariableOp", "shape": [2], "dtype": "float32"}, {"name": "__inference_sequential_1_lstm_3_while_body_68632_frozen_4394/sequential_1/lstm_3/while/add/y", "shape": [], "dtype": "int32"}, {"name": "__inference_sequential_1_lstm_3_while_body_68632_frozen_4394/sequential_1/lstm_3/while/lstm_cell_3/split/split_dim", "shape": [], "dtype": "int32"}, {"name": "__inference_sequential_1_lstm_3_while_body_68632_frozen_4394/sequential_1/lstm_3/while/TensorArrayV2Read/TensorListGetItem/element_shape", "shape": [2], "dtype": "int32"}, {"name": "__inference_sequential_1_lstm_3_while_body_68632_frozen_4394/sequential_1/lstm_3/while/add_1/y", "shape": [], "dtype": "int32"}, {"name": "__inference_sequential_1_lstm_2_while_body_68492_frozen_4395/sequential_1/lstm_2/while/add/y", "shape": [], "dtype": "int32"}, {"name": "__inference_sequential_1_lstm_2_while_body_68492_frozen_4395/sequential_1/lstm_2/while/lstm_cell_2/split/split_dim", "shape": [], "dtype": "int32"}, {"name": "__inference_sequential_1_lstm_2_while_body_68492_frozen_4395/sequential_1/lstm_2/while/TensorArrayV2Read/TensorListGetItem/element_shape", "shape": [2], "dtype": "int32"}, {"name": "__inference_sequential_1_lstm_2_while_body_68492_frozen_4395/sequential_1/lstm_2/while/add_1/y", "shape": [], "dtype": "int32"}]}]}